Function_1/Model 2/Model2 (1.1)/Model2 (1.1).onnx (onnx, 3745 bytes, 11 tensors)

sequential_1/dense_9/MatMul/ReadVariableOp:0 f4 [4, 3]
00000000: b494 923f 5b03 82be 8a1b d0be 718a 80bf
00000010: 3dcb 1c40 9c68 25bf 544a e33d 6ddf e83e
00000020: 2288 16bf 19e6 be3f af0c e6bf 3a71 523f
1.145163 -0.25393185 -0.4064601 -1.0042249 2.4499047 -0.64612746 0.11098161 0.4548296
-0.5880147 1.491397 -1.7972621 0.8220402

sequential_1/dense_9/BiasAdd/ReadVariableOp:0 f4 [3]
00000000: 446e 063d 8f84 b73e 0000 0000
0.03282 0.35843322 0.0

sequential_1/dense_8/MatMul/ReadVariableOp:0 f4 [6, 4]
00000000: f706 b3be de90 9d3f fdfd 45bf 13a0 8ebf
00000010: 225d 323f e06f 6d3e 667e 2bbf a87a 453f
00000020: 6e2b 693f c734 d0be dba4 cbbd f94f 553f
00000030: 0ce7 833f e94b a2bf 1c7a 0fbf 8488 4fbf
00000040: fd30 0c3e ab81 033f ca56 053f 1174 56be
00000050: 942b 813f 0fe0 dabe 5b76 14bf cae0 b7be
-0.3496625 1.2309835 -0.7734068 -1.1142601 0.6967336 0.23187208 -0.66989744 0.77140284
0.91081893 -0.40665266 -0.09943553 0.83325154 1.0304885 -1.2679416 -0.560457 -0.8106768
0.13690563 0.5136973 0.52085555 -0.20942713 1.0091424 -0.42749068 -0.57993096 -0.35913688

sequential_1/dense_8/BiasAdd/ReadVariableOp:0 f4 [4]
00000000: 049a f6bb f484 f53e 5a39 cfbb 461c 053e
-0.0075256843 0.47952998 -0.0063239755 0.12999067

sequential_1/dense_7/MatMul/ReadVariableOp:0 f4 [6, 6]
00000000: 6ca1 403f 66f4 e2be 418c d93c a9bc e43d
00000010: ed78 f53e eb15 593e d7a9 2abf b6a0 cebe
00000020: 7b0c 5d3e 33c0 d7be 43b7 53be af73 223f
00000030: 4b38 aebe 8800 f4be ba18 043f 8517 c03e
00000040: f7ab 853d 9ce5 d83e 7183 52bf 4ab2 2bbf
00000050: 5cc9 1b3f 0471 653d dbf2 0ebf 92c7 2f3f
00000060: 48d8 e3be c03d bdbd 73de da3e aa69 8c3e
00000070: f8f1 253f 3fd8 013f de6a 0e3f 2634 c73c
00000080: b2bb dcbe 4100 353f 70a0 a13c 9e42 743e
0.7524631 -0.44327086 0.026556136 0.111687966 0.47943822 0.21199767 -0.66665405 -0.40356988
0.21586792 -0.42138824 -0.20675378 0.6345777 -0.34027323 -0.47656655 0.5160023 0.37517944
0.0652694 0.42362678 -0.82231814 -0.6706892 0.60854125 0.056015983 -0.5583932 0.68663895
-0.44500947 -0.092402935 0.4274784 0.27424365 0.6482234 0.5072059 0.55631816 0.024316859
-0.4311195 0.7070351 0.019729823 0.23853537

sequential_1/dense_7/BiasAdd/ReadVariableOp:0 f4 [6]
00000000: f17f cd3e be60 7833 f068 83bd 88a4 89be
00000010: 181f cf3e 8463 6fbe
0.40136674 5.7829986e-08 -0.064164996 -0.2688334 0.4045341 -0.23377806

sequential_1/dense_6/MatMul/ReadVariableOp:0 f4 [6, 6]
00000000: 2d25 e83d 0900 873e 87de 40be 1dba 8c3d
00000010: d461 893d e404 99be e4f6 2fc0 a983 e63e
00000020: 3245 353e 8d5b 0abe 7b4d b13e 91af 4bbf
00000030: 5565 adbd 2b49 8fbe 464f 83be 99ba 623e
00000040: 8c42 22bd df37 753e d4b2 19bd 62f0 1a3d
00000050: cf8d 153f c425 cfbe 2f9b 61be 09f2 0ebd
00000060: 2755 073e ca41 10bf 6640 e93e 5eab afbe
00000070: 92c0 a5bd a89e 423f 6cdc 60be 57b2 25bf
00000080: 20d4 523f 8843 163f 719b 38bf bd5e 5fbd
0.11335216 0.26367214 -0.18834887 0.06871436 0.06708112 -0.29886544 -2.749444 0.45022324
0.17702177 -0.13511486 0.34629425 -0.7956477 -0.08466593 -0.2798551 -0.25646418 0.22141494
-0.039614245 0.23947094 -0.03752406 0.037826903 0.5841951 -0.404585 -0.22031854 -0.03489879
0.13216077 -0.56350386 0.45556945 -0.3431043 -0.080933705 0.7602334 -0.21959084 -0.6472525
0.8235493 0.58696795 -0.72112185 -0.05453371

sequential_1/dense_6/BiasAdd/ReadVariableOp:0 f4 [6]
00000000: ef84 543e e7c9 7cbd a2f7 51be e0f6 04be
00000010: dca6 4ebe 1d99 253e
0.20753835 -0.061715987 -0.2050462 -0.129848 -0.2018084 0.1617169

sequential_1/dense_11/MatMul/ReadVariableOp:0 f4 [2, 1]
00000000: 8a38 8340 8f47 b640
4.1006517 5.696235

sequential_1/dense_10/MatMul/ReadVariableOp:0 f4 [3, 2]
00000000: 7b30 863f 2836 323f ef51 21c0 5776 61c0
00000010: 34e9 16be 981c 85be
1.0483545 0.69613886 -2.5206258 -3.522848 -0.14737397 -0.25998378

sequential_1/dense_10/BiasAdd/ReadVariableOp:0 f4 [2]
00000000: 2eec 90be 364f 84bd
-0.2830519 -0.06460421
