Function_1/Model 1/Model 1.1/Model(1.1).onnx (onnx, 4906 bytes, 13 tensors)

sequential_6/dense_41/MatMul/ReadVariableOp:0 f4 [3, 1]
00000000: afea ad3e c298 c1bf 41f8 e43f
0.33968112 -1.5124743 1.7888261

sequential_6/dense_40/MatMul/ReadVariableOp:0 f4 [4, 3]
00000000: cb05 d63f 8933 80bf 127d c23e 6911 15c0
00000010: b97a ec3f 093d cdbf 104d 92bf 9642 593f
00000020: 7281 443d 68fa 1c3f 3eb9 93be d342 643f
1.6720518 -1.0015727 0.37986046 -2.3291876 1.8474952 -1.6034251 -1.1429768 0.8486723
0.04797501 0.6131959 -0.28852266 0.89164466

sequential_6/dense_40/BiasAdd/ReadVariableOp:0 f4 [3]
00000000: e781 763e 7030 843d e7c8 833e
0.24072991 0.06454551 0.25739214

sequential_6/dense_39/MatMul/ReadVariableOp:0 f4 [5, 4]
00000000: 4b67 d1be 73c6 763f 5dc9 b93f 75b4 16bf
00000010: a53d bb3e 409e 22bf 4538 0fbd 7c5c c03b
00000020: 67ef 71bf a162 a43f ad6f b33f 2855 24bf
00000030: c072 d73d 30f3 7abd 8140 b6be 9cdc db3e
00000040: ef46 6d3f 8e2e c1bf 83d4 953e 4742 f13e
-0.4089912 0.9639656 1.4514576 -0.58869106 0.3657047 -0.6352272 -0.034965772 0.0058704
-0.94505924 1.2842599 1.4018456 -0.6419244 0.10519934 -0.061267078 -0.35596088 0.4294175
0.9268636 -1.5092332 0.29263696 0.47120878

sequential_6/dense_39/BiasAdd/ReadVariableOp:0 f4 [4]
00000000: e568 873e 1651 bc3d ff61 b53e fe9f c63e
0.26447216 0.091951534 0.35426328 0.3879394

sequential_6/dense_38/MatMul/ReadVariableOp:0 f4 [6, 5]
00000000: 42f1 473f d953 e43e 1c43 713f e80e 95be
00000010: 7d0c 133d 1323 2f3f c799 80bd 69e8 7f3e
00000020: 84b8 36bf 0f9b d8bc 9f0e 27bf c7ce 31bf
00000030: 20d7 a4bd 9bbd b8be 83b4 3a3f 02a5 7c3f
00000040: 2f25 bfbe a9d7 723f 6084 e7bd 1e8e 0dbe
00000050: 710f 0dbf 883e 493d bd8f 84be 5013 203d
00000060: 7e61 e43e 37b4 14c0 344e c33d 886f 04c0
00000070: f04d 7dbe 5cf9 9d3f
0.78102505 0.4459522 0.94243026 -0.29112935 0.03590058 0.68412894 -0.06279331 0.24991001
-0.713753 -0.026441125 -0.65256685 -0.6945614 -0.08048844 -0.36082157 0.7293169 0.9868928
-0.37333056 0.9486032 -0.113045454 -0.13823745 -0.55101687 0.0491319 -0.25890914 0.039080918
0.4460563 -2.3234994 0.095364004 -2.0693073 -0.24736762 1.2341723

sequential_6/dense_38/BiasAdd/ReadVariableOp:0 f4 [5]
00000000: 9047 41bd f098 54be 02a3 28bd 0000 0000
00000010: 77ea ba3d
-0.047187388 -0.20761466 -0.04117108 0.0 0.09126752

sequential_6/dense_37/MatMul/ReadVariableOp:0 f4 [7, 6]
00000000: 950b 33bf d402 bb3e 0834 7dbe 456e 00bf
00000010: 9185 2cbf 6b3e fc3e c4aa 283f 8642 1c3f
00000020: 78b2 eabe 3fc7 45bc 95b5 c23e b9ee 25bf
00000030: 268c 22bf e608 92be b0a6 d6be 974a 423e
00000040: 077d 93bf 0a67 403f a081 bd3f 5c18 803f
00000050: 1eb0 06bf b4c8 1dbf b4c7 dabf be96 6bbf
00000060: e3b2 f03f 6ca0 553f 60bb 223f 7169 db3f
00000070: 582b c9bd f850 f4bf a2b2 0dbf 7a75 0a3f
00000080: f47d 2c3e 9882 5bbe 667d 22bf 54f3 4a3c
00000090: 86da 01c0 de31 9cbf 2806 a1bd 26c8 17bf
000000a0: 469d 81bf 6973 f13f
-0.6993955 0.36525595 -0.2472688 -0.5016826 -0.67391306 0.4926637 0.6588557 0.61039007
-0.45839286 -0.01207143 0.3802916 -0.64817387 -0.634951 -0.28522414 -0.41924047 0.18973766
-1.152253 0.75157225 1.4805183 1.0007434 -0.52612484 -0.61634374 -1.7092195 -0.9202689
1.8804592 0.8344791 0.6356716 1.7141553 -0.0982272 -1.908721 -0.553507 0.54085505
0.16844922 -0.21436536 -0.6347259 0.0123871155 -2.0289626 -1.2202718 -0.07862502 -0.5928978
-1.0126121 1.8863345

sequential_6/dense_37/BiasAdd/ReadVariableOp:0 f4 [6]
00000000: 956d 70bd ccf3 88bd 39ac 1cb4 0f5e 80be
00000010: 1526 0c3e 703a 933e
-0.058698256 -0.066871256 -1.4591286e-07 -0.2507176 0.13686402 0.28755522

sequential_6/dense_36/MatMul/ReadVariableOp:0 f4 [9, 7]
00000000: f15c b4be 6568 423f d843 35bf c387 173f
00000010: 1564 3cbf 6151 12bf af8c 343f 4483 153e
00000020: 8574 05bf 5314 b33f c8bf 05c0 4410 b33f
00000030: 91b1 53be 4d60 0bbe 64a3 05bf 7728 96c0
00000040: ba28 2640 7dbf 133e af2e a93e 0d49 4fbe
00000050: a794 47bd 25fc 183c a481 91bd 0eef 38bf
00000060: 13dd d6be b469 34bf 8fbe 003f 0eb9 59c0
00000070: a3ad 84be 8ef2 b43f fbfd f7be e521 973f
00000080: d6dc 0a3f 4708 76be 6c7f dfbf c424 01bc
00000090: 082f 183f 7f50 873e 84f0 003e 9aad 77be
000000a0: d781 5ebe 4c57 3fbe d870 bf3d 488a c03e
000000b0: f0b2 b33e 5239 763f 87e4 1a3f 013c f03e
000000c0: 5a74 9dbf b37e 9dbc af40 62c0 dd94 1f40
000000d0: b098 1ec0 2c31 1c3f 98cb 35be c381 f83d
000000e0: ae6f e93e 8d88 ac3f 872f edbf b02e 883f
000000f0: 2dc1 04bf b5f0 5ebe 684a c9be
-0.3522716 0.75940543 -0.70806646 0.5919153 -0.73590213 -0.57155424 0.70527166 0.14600855
-0.5213092 1.3990577 -2.0898304 1.3989339 -0.20673205 -0.13610955 -0.5220244 -4.6924396
2.5962358 0.14428516 0.3304343 -0.2024271 -0.04872575 0.00933746 -0.07104805 -0.7223977
-0.4196554 -0.7047379 0.5029077 -3.4019198 -0.25913724 1.4136522 -0.4843596 1.1807219
0.5424322 -0.24026595 -1.7460761 -0.007882301 0.59446764 0.264286 0.1259175 -0.24187317
-0.21729217 -0.18685645 0.09347695 0.376055 0.35097456 0.96181214 0.60504955 0.4692078
-1.2301133 -0.019225454 -3.535198 2.493461 -2.4780693 0.6101253 -0.17753446 0.12134125
0.45593017 1.3479172 -1.8530129 1.0639248 -0.5185726 -0.2177151 -0.3931458

sequential_6/dense_36/BiasAdd/ReadVariableOp:0 f4 [7]
00000000: f78c f3bd e0b8 873d 682c 7c3e 8591 92bd
00000010: f70c 27bf 6971 c2bd f044 5ebd
-0.11892121 0.06627059 0.24626315 -0.07156662 -0.6525416 -0.094942875 -0.054264963

sequential_6/dense_35/MatMul/ReadVariableOp:0 f4 [9, 9]
00000000: 50f3 a73f d413 ee3f d423 ad3f a345 083f
00000010: 2379 5c40 06de 2840 af64 6d3e ba9b e73f
00000020: 0290 f9be 3879 a13d 409f 67be 155a df3e
00000030: e77b 353f 7d91 543e fdad 37be 1a22 91bf
00000040: 48c4 713e 8dcb 26bf cc94 ac3e 7552 cbbe
00000050: 5ff9 5a3d 074f 7ebf 235b f3bf d05d 2240
00000060: 820e e43e 477e 1abd 9fa9 15c0 e027 31c0
00000070: 4c40 5840 2b0a 46be 9925 1a3e 0b74 70c0
00000080: 2196 27c0 a743 4cbe f02a 20bd 246a d93e
00000090: acd1 9d40 8b40 9dc0 c3b8 ad3d 6f51 f03f
000000a0: fbe6 1c41 e287 3240 025a 243f f61c b0be
000000b0: 8e23 ce3e d940 8b3f 0750 f4be f45a f03d
000000c0: 04e3 99be 7cce 0340 4340 de3e 225e fc3d
000000d0: 4c85 b6be 25c3 ad3e 6595 81c0 632a b0bf
000000e0: 2140 fe3f ac85 1840 62eb b03f d203 8fbf
000000f0: 740f 22be c483 c53f 1fd2 d6bd a58a 133e
00000100: b8b5 c2be f446 873e 8766 cd3e dd32 f53e
00000110: 9371 9a3f 0a48 acbd 9768 b5bd 90dc b3bd
00000120: cb82 08be f64b 68be 6088 9bbe cd0a 21bf
00000130: 3636 413c 0f09 ac3d 678d b8be 0916 a93d
00000140: 751d 45be
1.3121128 1.8599801 1.3526559 0.5323126 3.4448936 2.6385512 0.23182939 1.8094399
-0.48742682 0.07884449 -0.22619343 0.43623415 0.70892185 0.20758624 -0.17937465 -1.1338532
0.23610032 -0.65154344 0.33707273 -0.39711347 0.053460475 -0.99339336 -1.9012188 2.5369759
0.4454232 -0.037718084 -2.3384778 -2.7680588 3.3789244 -0.19339816 0.15053405 -3.7570827
-2.6185381 -0.19947682 -0.03910345 0.4246379 4.9318447 -4.914129 0.08482506 1.8774852
9.806392 2.7895436 0.6419984 -0.34397095 0.402615 1.0879165 -0.47717306 0.11736098
-0.30056012 2.0594778 0.43408403 0.12322642 -0.35648572 0.33937946 -4.0494866 -1.3762935
1.986332 2.3831587 1.3821833 -1.1173041 -0.15826207 1.5430837 -0.10489296 0.14408357
-0.38029265 0.2642132 0.40117285 0.47890368 1.206591 -0.08412178 -0.088578396 -0.08782303
-0.13331144 -0.22685227 -0.30377483 -0.62907106 0.01179271 0.08400165 -0.3604538 0.08256156
-0.19249518

sequential_6/dense_35/BiasAdd/ReadVariableOp:0 f4 [9]
00000000: e44a a63e 5939 093e 0b85 23bd b30d 9a3e
00000010: 5a78 4fbc 015c 723e d399 153e dd59 d8bd
00000020: 685b da3d
0.32479012 0.13400783 -0.0399218 0.30088577 -0.012662971 0.23667909 0.1460946 -0.10564015
0.106619656
