Function_1/Model 2/Model2 (1.0)/Model2 (1.0).onnx (onnx, 4509 bytes, 11 tensors)

sequential_20/dense_125/MatMul/ReadVariableOp:0 f4 [2, 1]
000000 bd e7 10 40 e4 92 33 c0
       2.2641442 -2.8058405

sequential_20/dense_124/MatMul/ReadVariableOp:0 f4 [3, 2]
000000 a7 d7 cd bf ac 8b 7f 3e fa 59 c9 be eb f2 44 be
       -1.6081437 0.24955624 -0.3932646 -0.19233291
000010 03 6e d1 3f 32 dc 0d c0
       1.6361698 -2.2165647

sequential_20/dense_124/BiasAdd/ReadVariableOp:0 f4 [2]
000000 78 5b 7e bd 10 0b 32 3f
       -0.06209895 0.6954813

sequential_20/dense_123/MatMul/ReadVariableOp:0 f4 [4, 3]
000000 ff bb 13 c0 f5 c6 dc be cc 33 ec 3f a7 e7 8c 40
       -2.3083494 -0.43120542 1.8453307 4.403278
000010 8f be 88 bf cb 73 f3 bf b6 ca 02 c0 f7 5f 83 c0
       -1.0683154 -1.9019712 -2.0436225 -4.1054645
000020 13 42 cf 3f 2d 38 2e 3f 56 aa 47 3e a4 c7 18 bf
       1.6192039 0.6805447 0.19498572 -0.5967963

sequential_20/dense_123/BiasAdd/ReadVariableOp:0 f4 [3]
000000 23 ac eb bd be 16 07 c0 4e 42 a4 be
       -0.11507442 -2.110763 -0.32081836

sequential_20/dense_122/MatMul/ReadVariableOp:0 f4 [6, 4]
000000 ef 2f 52 40 a5 47 64 bf a0 3d c2 3f 41 7c 4e 3e
       3.2841756 -0.8917182 1.5175056 0.20164587
000010 7c cd 28 c0 e3 a3 35 40 59 58 db bf f2 1d 5a be
       -2.6375418 2.8381279 -1.7136337 -0.21300486
000020 bf d0 19 bf 51 6a e2 3e 09 82 1a bf f3 58 35 3f
       -0.60084146 0.44221738 -0.6035467 0.7083885
000030 0d 78 d1 c0 49 e6 18 be c7 03 09 40 cc f8 0d 3e
       -6.5459046 -0.14931597 2.1408556 0.1386444
000040 6a bb bc 3f 77 96 22 bf 32 bd 8e be 5f 82 22 3e
       1.4744694 -0.6351084 -0.2787872 0.15870045
000050 9e 4e 64 40 49 d1 57 bf 01 21 c2 3f fb dd 87 3c
       3.5672984 -0.8430372 1.5166322 0.01658534

sequential_20/dense_122/BiasAdd/ReadVariableOp:0 f4 [4]
000000 88 e4 63 3e fe d1 32 3d d8 a3 16 bd aa c9 6a be
       0.22255147 0.043657295 -0.036777347 -0.22928491

sequential_20/dense_121/MatMul/ReadVariableOp:0 f4 [16, 6]
000000 0b fa 4e bf fb d1 99 3f ad 0c bb be 27 c8 d7 be
       -0.80850285 1.2017206 -0.36533108 -0.42144892
000010 01 ae aa be 61 e4 d0 be d0 5d d1 3f d5 4e dc bf
       -0.3333588 -0.4079924 1.6356754 -1.7211558
000020 c4 2a 51 be d6 66 0b 40 2f 98 c8 3f fe 21 bd 3f
       -0.2042647 2.1781516 1.5671443 1.4775999
000030 d2 7e 4b bd 38 89 81 3e c9 77 00 bf c9 90 f3 3e
       -0.049681492 0.25300002 -0.5018278 0.475714
000040 9a 76 35 3e 99 5e ca 3e 6f db ab be de bd 63 3d
       0.17721024 0.39525297 -0.33565852 0.055600993
000050 b7 67 e3 3d 2d e5 ef be a4 35 c8 be 59 f5 09 bf
       0.111037664 -0.46854535 -0.39103425 -0.53889996
000060 b5 fd 3e bf 73 f3 22 3f aa 54 5b be 29 3d 55 bf
       -0.74605876 0.63652724 -0.21419016 -0.8329645
000070 1c 98 ef be b5 46 5c bf 80 03 3b 3e 06 b1 0e be
       -0.46795738 -0.8604539 0.18263054 -0.13934717
000080 83 62 d9 bd 59 d4 65 3e 7f 79 4b 3e 36 83 84 3e
       -0.10614493 0.22444285 0.19870566 0.25881356
000090 81 a5 a5 be e7 f7 4d 3f 6f 83 f6 3d dd c9 17 bf
       -0.32352832 0.80456394 0.12036788 -0.59292394
0000a0 35 e7 e6 be fc 31 ca be 08 54 9b 3d 50 d0 94 be
       -0.45098272 -0.3949126 0.07584387 -0.2906518
0000b0 b1 5b 67 3d f2 89 07 3f 6d 3e 3f 3e 4e 75 a3 3e
       0.056483928 0.5294486 0.18676157 0.31925434
0000c0 b7 7c b1 3e fb bf 03 bf 6e ad 97 bc cd 5e 4b 3e
       0.34665462 -0.51464814 -0.018515315 0.19860382
0000d0 87 9f aa 3e 5f 4a 1e 3e b4 ff 92 be 01 b8 de bd
       0.33324835 0.15458058 -0.2871071 -0.1087494
0000e0 4b cd 56 3d 94 7c e0 be 9c 7c fc be b2 48 d6 be
       0.052441876 -0.43845046 -0.4931382 -0.41852337
0000f0 eb 00 d3 3e 50 8e 02 bf ba ad 26 be d7 15 11 be
       0.41211638 -0.509984 -0.16277209 -0.14168487
000100 5a 43 ca 3e b0 e8 bf 3e b0 0c 80 3d c3 55 55 3f
       0.3950451 0.37482214 0.0625242 0.83333987
000110 a5 65 1e 3e f2 e8 5e be 21 66 09 bc f0 9a 34 bd
       0.15468462 -0.21768549 -0.008386166 -0.044093072
000120 33 b2 f3 3e 11 41 97 be a7 3a 34 be e1 79 34 3f
       0.47596893 -0.2954183 -0.17600499 0.7049847
000130 81 98 0e 3f 5f 18 38 3f fd 49 ab be 8a 16 97 3e
       0.5570145 0.7191219 -0.33454886 0.29509383
000140 28 34 cd be a8 e2 42 bf 75 97 79 be 0c 5d 20 bf
       -0.40078855 -0.761271 -0.24374183 -0.6264198
000150 5e 38 cd 3e 75 b1 75 be 12 ea 88 3e 75 de 0e 3f
       0.40082067 -0.23993476 0.2674108 0.5580819
000160 e4 5a 8f bd 75 77 13 3f 8b 8e 7d bf 86 08 6d 3f
       -0.06999758 0.5760415 -0.9904563 0.9259113
000170 7e 1a 88 be 33 fd 9e bf eb a6 30 bf 5e 95 77 bf
       -0.26582712 -1.242102 -0.69004697 -0.9671229

sequential_20/dense_121/BiasAdd/ReadVariableOp:0 f4 [6]
000000 5e 73 8a be 17 04 d4 3e d1 37 fe bd 8b 31 93 be
       -0.27041143 0.4140937 -0.1241299 -0.28748736
000010 09 20 64 be bd 40 80 be
       -0.22277845 -0.2504939

sequential_20/dense_120/MatMul/ReadVariableOp:0 f4 [6, 16]
000000 66 f0 42 be 45 3d 16 bd 74 10 41 3e 36 04 85 bd
       -0.19037017 -0.036679525 0.18853933 -0.06494944
000010 e5 6f c7 3e 48 46 ab 3e 3f ed f8 3d 9b d7 0b be
       0.38952556 0.33452058 0.12154626 -0.13656466
000020 98 4c 33 3e 57 93 86 3e eb 81 d1 be c7 3a 1f c0
       0.17509687 0.26284286 -0.40919432 -2.4879625
000030 c4 d2 d9 3c bc ce b1 bd ef 21 ec 3d 0d 09 68 3e
       0.026589759 -0.086820096 0.1152991 0.22659703
000040 0d 18 06 bd a8 fa 76 3d 9a 99 af 3e 67 34 8d 3d
       -0.03273778 0.06029764 0.34296876 0.068947606
000050 c7 45 14 3d 2f 39 8f be e6 c4 5f be 64 57 ab 3d
       0.036199357 -0.27973315 -0.21852455 0.08366278
000060 e7 8d 75 3e d0 2f 60 3d ae 5b 82 3d 33 f7 aa bf
       0.23979913 0.054733098 0.06365143 -1.3356689
000070 b2 fa 54 3e c4 d2 b8 3e 15 f3 4d 3e d8 54 1c bd
       0.20798758 0.360983 0.2011226 -0.03816685
000080 9f c5 6d 3e 2f 9f 19 bd 6b 29 88 3e 96 17 a2 bf
       0.23219918 -0.037505325 0.265941 -1.2663448
000090 7d 2e 1a 3e d1 6c e2 be ee f3 0a bf b2 e5 db 3d
       0.15056796 -0.44223645 -0.5427846 0.1073717
0000a0 a0 53 57 3f 43 fd 78 be c2 27 36 3e 85 97 62 3b
       0.84111977 -0.24315362 0.17788604 0.0034575176
0000b0 b4 30 9b bf 15 1e f8 3e ae 47 0b 3f b2 57 a0 3c
       -1.2124238 0.4846045 0.5440625 0.019573066
0000c0 0b 7c 92 3d b8 ab ae bd 94 93 fc bd 64 2c e4 3d
       0.071525656 -0.085288465 -0.12332836 0.11141279
0000d0 d6 bf 2d 3e 00 f6 5a bd db df af bd fd 46 09 be
       0.16967711 -0.05345726 -0.08587619 -0.13405986
0000e0 a1 ac 00 3f 09 80 35 be 22 9d 20 be 64 05 83 3e
       0.5026341 -0.17724623 -0.15684941 0.2559005
0000f0 d8 a4 42 ba 78 09 c8 be 6f cb 55 3d 83 b8 13 3f
       -0.00074250763 -0.39069724 0.052195963 0.5770342
000100 a9 cd c2 3e f6 82 f3 be 25 dc e6 be 2b 69 01 3f
       0.3804753 -0.47560853 -0.45089832 0.505511
000110 a9 8f 5a be 02 ba 57 3e ec 8a 83 be 64 1d c8 3e
       -0.21343865 0.2106705 -0.25691926 0.39084923
000120 c8 bb 35 3f cf 62 0a be fa 38 ff bd 98 d9 8d 3e
       0.70989656 -0.13514255 -0.12462039 0.27705073
000130 60 0d 42 bd 80 10 20 bd 2a 4d 86 3d 43 7a 2d 3f
       -0.047376037 -0.039078236 0.065576866 0.6776468
000140 a3 3d b6 be 0f 23 bf 3e 22 ef 6b 3e c3 92 02 3e
       -0.355939 0.37331435 0.2304044 0.12751298
000150 40 b5 92 be 60 69 69 3e 57 b3 7f 3c c4 59 30 3f
       -0.28653908 0.22794104 0.015606723 0.6888697
000160 dd 9c 1c 3f e3 32 26 be c9 37 b5 be 6b 6a 08 3e
       0.61176854 -0.16230349 -0.35394123 0.13321845
000170 68 b1 8a 3e e9 80 69 be 3c 64 1d 3f 61 7c 0e bf
       0.27088475 -0.22803082 0.6148107 -0.5565854

sequential_20/dense_120/BiasAdd/ReadVariableOp:0 f4 [16]
000000 4f 77 86 3e e0 97 6f be 66 14 f1 bd 0b eb 51 bd
       0.262629 -0.2339778 -0.11771469 -0.051249545
000010 32 73 cf 3e 27 8e 0c be 14 76 11 3e a2 22 38 be
       0.40517575 -0.13726102 0.142052 -0.17981961
000020 72 6c 56 bd 33 72 18 bd ae ab c4 bc 9b c6 11 be
       -0.052349515 -0.037218284 -0.024007645 -0.14235918
000030 55 4c eb bd ec df d0 3e 65 89 b7 be 0e 15 2e 3e
       -0.114891686 0.4079584 -0.3584701 0.17000219
