Function_1/Model 1/Model 1.2/function1 model (1.2).onnx (onnx, 5089 bytes, 13 tensors)

sequential_1/dense_9/MatMul/ReadVariableOp:0 f4 [7, 6]
000000 b5 31 63 3b 65 4e 81 3e 4a af dc be 94 22 d8 3d
       0.003466708 0.25255123 -0.43102485 0.1055347
000010 aa ea 67 be 1d fb 38 3f 92 40 67 3f 83 d8 6e 3f
       -0.22648111 0.7225817 0.903329 0.9329912
000020 25 58 60 3f 3a 82 3a 3e 20 8a 42 3e fb 23 9f 3f
       0.876345 0.1821374 0.18998003 1.2432855
000030 14 3d 4b 3f df 6c 09 bf 3f f0 5e bf 2f c4 ca bd
       0.7939007 -0.5368175 -0.87085336 -0.099007
000040 50 bc c9 bd 58 84 47 bf c2 4c 11 c0 d8 a2 c5 bf
       -0.09850371 -0.77936316 -2.27031 -1.5440321
000050 57 28 5d 3f a0 22 15 bf ba 74 eb be fc c9 ca 3e
       0.8638968 -0.5825596 -0.45987493 0.39607227
000060 e2 09 cf be 1d 89 04 40 c7 57 29 bf cd dc ac 3d
       -0.40437227 2.0708687 -0.6614956 0.08440552
000070 fa da f4 be 4f ef fd 3e 78 dc 03 bf cd b3 6f 3e
       -0.47823316 0.4959664 -0.51508284 0.23408432
000080 98 cd 2b 3f 91 99 ba be 6e 78 06 bf 56 40 d4 3e
       0.67110586 -0.36445287 -0.5252751 0.41455334
000090 f3 6c 2d 3f 0f 26 05 be 4c 64 f8 3d d3 75 3b be
       0.6774437 -0.130028 0.12128505 -0.18306665
0000a0 28 96 33 be dc d8 85 3f
       -0.17537749 1.0456805

sequential_1/dense_9/BiasAdd/ReadVariableOp:0 f4 [6]
000000 cf f7 0c 3e 3a e9 0c 3c 1c 12 59 be ba 94 72 bd
       0.13766406 0.008600527 -0.21198314 -0.059223868
000010 00 00 00 00 14 35 ac 3e
       0.0 0.33634245

sequential_1/dense_8/MatMul/ReadVariableOp:0 f4 [11, 7]
000000 af 63 d7 bd 3f 7e e8 3e bd 27 dd be b5 b3 0a c0
       -0.1051706 0.45408818 -0.4319438 -2.1672184
000010 b7 2f 99 3e 9c 7e df 3f 2b b8 1e bf ca 6f 64 bf
       0.29919216 1.7460513 -0.6199977 -0.89233077
000020 36 4c 21 bf 5d cc e0 3f 98 54 89 3f 4a 4b b9 3e
       -0.63006914 1.7562367 1.0728941 0.36190253
000030 e3 01 4a bf ef fb 8a bf e6 2e 92 3f 3b 9d ce 3f
       -0.7890913 -1.0858134 1.1420562 1.6141733
000040 09 f0 02 c0 18 2e b6 3f 7e a2 a4 bf fc 7c dd 3f
       -2.0459006 1.4232817 -1.2862089 1.7303767
000050 b2 53 0b bf 1a 93 b5 3e 7d 47 7b 3f 67 6f 6a bf
       -0.54424584 0.35463792 0.9815596 -0.91576236
000060 09 a6 a6 bf 41 60 28 bf df c6 6f be 53 ab f8 3f
       -1.301942 -0.6577187 -0.23415707 1.9427284
000070 9e b0 01 bf 12 5e 4e bd b4 ca e4 be 0c c8 b3 3e
       -0.5066012 -0.05038268 -0.446859 0.3511356
000080 23 c3 19 3f 98 ab ea be 21 d8 f8 be a1 25 f5 3e
       0.6006338 -0.4583404 -0.48602393 0.4788027
000090 82 8a f7 3e 7c 4a c2 bf 90 72 38 3e 5f 8c 59 be
       0.4834786 -1.5178981 0.18012452 -0.21244954
0000a0 c0 a3 9b 3f f2 4b 43 3f b3 39 33 3f c9 59 90 be
       1.2159348 0.7628776 0.7000992 -0.281935
0000b0 5d 8b f4 3e 21 24 32 bf c3 2f 95 3e 87 8b a1 3e
       0.47762576 -0.6958638 0.29138002 0.31551763
0000c0 1c a3 f4 3e d9 04 54 3f 0d ac be 3e b3 08 70 3e
       0.47780693 0.82819897 0.3724064 0.23440818
0000d0 b0 54 f6 be 34 05 29 be 20 1c 5b 3d 42 73 0a bb
       -0.48111486 -0.16505891 0.05349362 -0.0021125828
0000e0 cc 3d 2e 3f 6f 34 5a be e5 96 5b 3e 01 6a 23 3f
       0.68063045 -0.21309064 0.2144428 0.63833624
0000f0 22 29 0e 3d cf 38 4d 3f 43 a5 a2 be 06 e9 9e 3f
       0.034707196 0.8016481 -0.3176671 1.2414863
000100 3c 55 4d 3f 00 46 72 3e f7 38 f4 3c ce d7 b5 3e
       0.8020818 0.23659515 0.02981232 0.35516208
000110 b7 74 ca be ff d6 92 3f f5 1b 1e be 25 36 26 3f
       -0.3954217 1.1471862 -0.15440352 0.6492637
000120 13 81 0c bd de 15 0b 3e 4e 20 e9 3e 7f c0 a2 be
       -0.034302782 0.1358256 0.4553246 -0.31787488
000130 f0 92 79 3e
       0.24372458

sequential_1/dense_8/BiasAdd/ReadVariableOp:0 f4 [7]
000000 6c f0 e2 3e 58 95 d5 bd 64 ec b6 3d 08 63 b4 bd
       0.44324052 -0.10428876 0.08931807 -0.08807951
000010 3c 43 9d bd 10 b8 02 be b7 c9 3b bd
       -0.076788396 -0.12765527 -0.045846667

sequential_1/dense_7/MatMul/ReadVariableOp:0 f4 [11, 11]
000000 e7 ab 99 be e0 fc 0a 40 50 52 88 3f c4 67 ea be
       -0.30013964 2.1716843 1.065012 -0.45782292
000010 86 cc 90 be 67 ab 54 be c7 df 1f 3e c9 bb c0 3e
       -0.2828104 -0.2076851 0.15612708 0.3764327
000020 d9 ca 7e bd 87 0d c0 3f 3d c0 7e bd c4 98 6b 3f
       -0.06220517 1.5004128 -0.06219505 0.92029977
000030 a3 ba 39 3f 2a 50 8b bf 24 4c 22 3e 00 17 01 3e
       0.7255041 -1.0883839 0.15849358 0.1260643
000040 36 6d 70 bd a5 65 e0 3e 19 8b 31 be 98 8e 70 be
       -0.0586979 0.4382755 -0.17338218 -0.23491895
000050 eb 5d 6d bd 4c 07 bd 3e c1 f7 3d 3f 4a 11 d7 3d
       -0.057950895 0.3691963 0.7420617 0.105013445
000060 a7 a4 bd 3f 72 91 75 bf 7a 87 aa be fd 10 bb 3e
       1.4815873 -0.95925057 -0.33306485 0.365364
000070 df 0f 1a 3f 27 b1 25 3f e9 ca 4c 3f d8 e4 39 c0
       0.6018047 0.6472344 0.79997116 -2.9045925
000080 97 44 0a 3e e4 7a 54 c0 83 76 79 40 16 c8 84 bf
       0.13502727 -3.3200006 3.8978584 -1.0373561
000090 14 d5 41 bf 58 f0 4f 3e 51 7d 64 c0 81 16 f0 bf
       -0.75715756 0.20306528 -3.5701487 -1.8756868
0000a0 05 fa 64 be bd e9 77 bf ab 23 5d c0 5e d9 65 bf
       -0.22361 -0.9684103 -3.455302 -0.897848
0000b0 d7 5f 71 40 71 32 ed bf ad af bb be 2e 49 91 3f
       3.7714746 -1.8531018 -0.36657467 1.1350458
0000c0 c4 3b a3 3e 45 01 09 40 24 50 07 40 21 48 38 40
       0.31881535 2.1407025 2.1142664 2.8794024
0000d0 03 4b 1d c0 ca 6f d8 3f 56 20 c8 be 42 bb 59 3f
       -2.4577034 1.6909115 -0.3908717 0.8505136
0000e0 b6 ee 30 bf c6 4e a4 3b 40 d4 c7 be d6 cc e4 be
       -0.69114244 0.0050142733 -0.3902912 -0.44687527
0000f0 97 d5 e1 3e f8 15 6f 3f ed e4 c1 3e ff 63 6b be
       0.4410827 0.93392897 0.3786997 -0.22987364
000100 f7 ca a5 3e 8e 64 3f be 09 db 75 c0 5a cb 86 40
       0.32381412 -0.18690702 -3.8414938 4.212323
000110 27 6c 3b 3f 9d 43 94 bf 23 45 98 3d 1f c5 00 c0
       0.732119 -1.1583134 0.07435062 -2.0120313
000120 5b a3 40 bf 06 d1 3f c0 79 dd 1a 40 18 24 14 c0
       -0.7524926 -2.9971328 2.4197676 -2.314703
000130 ae d1 2f be 76 57 f5 3e 80 bc fa be fb 41 19 3f
       -0.1716983 0.4791829 -0.4897194 0.59866303
000140 95 14 da 3d 98 b2 a7 3e 0d 7e a9 3e bd bb a5 be
       0.10648457 0.32753444 0.33103982 -0.32369795
000150 e1 85 c1 bd c2 09 ae be 71 6b 6a be 79 e6 3f 3e
       -0.094493635 -0.3399182 -0.22892548 0.18740262
000160 0b a8 fc be 73 24 b7 be 10 da e9 bd 96 32 27 bd
       -0.49346957 -0.35769996 -0.11418545 -0.040819727
000170 55 4d f8 3e 91 18 36 3f 11 28 c4 be 41 ff 17 3e
       0.484965 0.71131235 -0.38311818 0.14843465
000180 6a 02 06 bc 89 f5 d8 3b c5 53 74 bd 61 d1 20 bd
       -0.0081792865 0.006621067 -0.0596502 -0.03926218
000190 7e dd d3 be 6d 92 a8 be 49 45 8e 3d bc 42 fb be
       -0.41379923 -0.32924214 0.06946809 -0.49074352
0001a0 ef 09 8d 3e 12 5e c9 be ad 63 0c bf df 01 14 3f
       0.2754664 -0.39329582 -0.54839593 0.57815355
0001b0 a5 47 74 be bc 96 9f bf f2 36 38 3e 9a c4 0c 3f
       -0.23855455 -1.2467875 0.1798971 0.5498749
0001c0 5d b0 70 3e c6 22 e3 be b8 89 dc be a9 1b 35 be
       0.23504777 -0.44362468 -0.4307382 -0.17686333
0001d0 66 b1 d9 3e e8 f2 c0 3e c7 3b ce 3e f6 13 b1 3e
       0.42518157 0.37685323 0.40279981 0.3458554
0001e0 bb f1 e3 3d
       0.11130091

sequential_1/dense_7/BiasAdd/ReadVariableOp:0 f4 [11]
000000 12 2f cf 3d 8f 9c 0f be df 1d f0 bd b0 37 7c 3e
       0.101164 -0.14024566 -0.117244475 0.24630618
000010 a4 9a 2e bd 54 21 68 bd 57 d9 df 3d 65 f4 3d 3c
       -0.042627946 -0.05667241 0.10930126 0.011593913
000020 0e 43 01 be 89 79 95 bd dc dc 2b bc
       -0.12623236 -0.072985716 -0.010489669

sequential_1/dense_13/MatMul/ReadVariableOp:0 f4 [3, 1]
000000 90 8a e8 bf 4c 8e b1 be 80 95 0b 3f
       -1.8167286 -0.34678876 0.54524994

sequential_1/dense_12/MatMul/ReadVariableOp:0 f4 [4, 3]
000000 05 41 71 bf c4 e2 9c bd ac 18 51 3f 26 3b 68 3f
       -0.94239837 -0.076604396 0.8167827 0.90715253
000010 a1 63 62 3f ae af 38 3e 34 ea d6 be bb d8 43 bf
       0.8843327 0.18035766 -0.41975558 -0.7650258
000020 fd 74 6b bf da a0 0f c0 2e 83 89 bc e7 e6 d4 3f
       -0.91975385 -2.2441926 -0.016786184 1.6632966

sequential_1/dense_12/BiasAdd/ReadVariableOp:0 f4 [3]
000000 4d 18 06 be 4c c9 76 bc 52 eb 79 3e
       -0.13095208 -0.015062641 0.24406174

sequential_1/dense_11/MatMul/ReadVariableOp:0 f4 [5, 4]
000000 15 df 32 bf 36 7c 51 be c4 d3 40 bf 1c f5 e8 3e
       -0.69871646 -0.20457539 -0.7532313 0.45499504
000010 5b a5 3e 3e b0 6e 0e 3f 85 5a a9 3e 1c a8 08 bf
       0.18617766 0.55637646 0.33076873 -0.53381515
000020 7a 9a 3c bf e4 07 6b bf 02 2e ac 3e 7e d8 f9 3f
       -0.7367321 -0.91808915 0.3362885 1.9519193
000030 66 72 32 bf ed 95 b8 bf e7 a1 32 3e f5 0c 08 40
       -0.6970581 -1.4420754 0.17444573 2.1257908
000040 62 3f 90 be 7a 27 7e 3f 5c 34 52 bf 3a 17 0d 3e
       -0.28173357 0.99278986 -0.82111144 0.13778391

sequential_1/dense_11/BiasAdd/ReadVariableOp:0 f4 [4]
000000 8e 35 43 3e be e5 75 bb 8e 0c fd bd f3 80 a9 3e
       0.19063398 -0.003752097 -0.1235591 0.33106193

sequential_1/dense_10/MatMul/ReadVariableOp:0 f4 [6, 5]
000000 f0 ab 35 be c1 b9 11 3e 47 6f ea be 99 b1 36 c0
       -0.1774137 0.14231016 -0.45788023 -2.8545897
000010 dc b4 1a 3f a4 99 88 be b0 d1 ae 3f a6 ec 5f bf
       0.6043222 -0.26679718 1.3657742 -0.8747047
000020 8d a9 6c bf a9 84 f1 3f b9 56 28 bf 70 ba 27 40
       -0.92446214 1.886861 -0.6575733 2.6207542
000030 7e b6 48 c0 48 99 5c c0 96 0d 2b 3f 59 3a cd 3e
       -3.1361384 -3.4468555 0.66817605 0.40083578
000040 93 b3 e6 be fe 24 1d 3e 1d 71 9e 3d f8 83 4a 3e
       -0.4505888 0.15346143 0.077364184 0.19776905
000050 d8 c5 37 3e 01 15 16 3f df 37 03 bf 23 44 38 3f
       0.17946565 0.586258 -0.5125713 0.7197897
000060 10 0a 6e bd 22 eb 1b bf 68 94 15 3f 13 21 ee bd
       -0.058115065 -0.6090566 0.58429575 -0.11627402
000070 3b c6 c5 3d c9 9f 4c 3f
       0.0965695 0.7993131

sequential_1/dense_10/BiasAdd/ReadVariableOp:0 f4 [5]
000000 be 1b 3d bb 7a 0a 8d be ed e7 0e 3f 74 44 d8 3e
       -0.0028855647 -0.27547055 0.5582264 0.42239726
000010 31 bb 51 3e
       0.20481564
