Function_1/Model 1/Model 1.0/Model(1.0).onnx (onnx, 5104 bytes, 13 tensors)

sequential_6/dense_42/MatMul/ReadVariableOp:0 f4 [4, 1]
000000 b7 ad 8a 3f a8 86 2d bf 67 62 a9 bf fa 94 33 bf
       1.0834264 -0.67783594 -1.3233155 -0.70149195

sequential_6/dense_41/MatMul/ReadVariableOp:0 f4 [5, 4]
000000 05 d8 a5 be 78 7e 86 be 16 95 3f 3f 67 15 e1 3e
       -0.32391372 -0.26268363 0.7483686 0.4396164
000010 34 61 c5 3f 35 a8 86 be b9 63 23 bf b5 a7 c4 3e
       1.5420289 -0.26300207 -0.6382404 0.384092
000020 ba d7 dc 3f d6 29 46 3f a6 9a 35 bf 62 63 6f bf
       1.7253335 0.77407587 -0.709391 -0.9351102
000030 c3 e4 0a 3f d7 8e 38 bf ec bf 3c 3e 6a d9 28 bf
       0.5425531 -0.72092956 0.18432587 -0.6595675
000040 6a 7f 7e 3e 1f 55 09 3f 43 72 e7 be 14 1c 45 bf
       0.24853292 0.5364551 -0.45204362 -0.7699597

sequential_6/dense_41/BiasAdd/ReadVariableOp:0 f4 [4]
000000 d9 02 d4 3e db 88 07 bd e8 ba 25 3e 63 69 0d 3e
       0.41408423 -0.0330895 0.1618458 0.13809733

sequential_6/dense_40/MatMul/ReadVariableOp:0 f4 [6, 5]
000000 f3 4b ef 3e d4 99 07 be 19 4c b1 be 17 68 99 bd
       0.46737632 -0.13242275 -0.3462837 -0.07490557
000010 d0 30 b7 3e 9d d9 85 be 57 62 17 3f 23 19 28 3f
       0.35779428 -0.26142588 0.5913443 0.65663356
000020 f2 9e 1c 3f f2 67 ba 39 b9 ca d1 3f 55 be 4f bf
       0.6118003 0.0003555413 1.6389991 -0.811498
000030 db f2 0d bf 59 a2 04 bf 48 6b 22 3f a8 b6 f5 be
       -0.55448693 -0.5181022 0.6344495 -0.47990918
000040 11 15 12 3f b7 f1 f6 3d db 7c 81 3f 62 78 d9 3c
       0.57063395 0.12057822 1.0116228 0.02654666
000050 4f 62 24 3f d5 e1 b0 bf 06 fc 98 bf 2b 12 15 3f
       0.64212507 -1.3818918 -1.1951911 0.5823085
000060 9f fb 4c be 3d 7d 76 3f a4 b9 3d 3e 00 6b 86 be
       -0.20017861 0.9628485 0.18527848 -0.2625351
000070 5e d6 f2 be db 43 3c bf
       -0.47429174 -0.7354104

sequential_6/dense_40/BiasAdd/ReadVariableOp:0 f4 [5]
000000 1a 12 0d 3e 5c 38 33 3e 49 8c 7f 3e b3 be d8 3e
       0.13776436 0.17501968 0.24955858 0.42332992
000010 0d 8e 9f bd
       -0.07790766

sequential_6/dense_39/MatMul/ReadVariableOp:0 f4 [7, 6]
000000 76 f5 07 bf 94 ed 4e bf b6 05 20 bf 45 4b 06 bf
       -0.5310892 -0.80831265 -0.62508714 -0.524586
000010 37 ed 85 3e 02 41 01 3f 2a 25 8b be 4c 7b f5 be
       0.26157543 0.5048982 -0.2717679 -0.4794563
000020 00 19 16 3d e1 5a d1 be 50 ca 04 3d 9a fd 1b be
       0.036644936 -0.40889648 0.032419503 -0.1523346
000030 16 43 47 3f 74 a5 17 bf 72 fd 83 3f fe a6 90 be
       0.7783674 -0.59236836 1.031172 -0.28252405
000040 36 cd 0b 3e f2 4e 9a 3f 33 6c 58 3e 46 7b 25 3f
       0.136525 1.2055342 0.21135025 0.64641225
000050 2b 15 71 bf 82 31 16 3f 6e 4b 55 bd 68 77 7f 3f
       -0.94172925 0.5866929 -0.05207389 0.99791574
000060 67 96 81 be af a2 e7 be 8b 00 08 bf 57 09 e9 be
       -0.2531006 -0.45241305 -0.5312583 -0.45514938
000070 45 cf ef be 93 7a e9 be bf 10 44 3f 9c 12 21 3f
       -0.46837822 -0.4560133 0.7658805 0.6291902
000080 6a 90 d4 be 7f 8a 27 3f 1e ae b9 3e 49 cf aa 3f
       -0.4151643 0.65445703 0.36265653 1.3344508
000090 b8 af 41 3f 13 5e 4d bf a4 63 d1 be 1c 5d 9b bf
       0.7565875 -0.8022167 -0.40896332 -1.213779
0000a0 f4 16 41 3f 1e 28 42 3f
       0.7542565 0.75842464

sequential_6/dense_39/BiasAdd/ReadVariableOp:0 f4 [6]
000000 e1 c3 1f 3d 96 25 91 3e 16 5f 82 3e 47 59 90 3d
       0.039005164 0.28348988 0.2546317 0.07048278
000010 cc 19 e3 bd 60 34 76 3e
       -0.11088905 0.24043417

sequential_6/dense_38/MatMul/ReadVariableOp:0 f4 [8, 7]
000000 6e bf 51 3f 24 3f 70 be d8 83 a7 3f 10 bd a4 bf
       0.81932724 -0.23461586 1.308711 -1.2870197
000010 28 d2 10 bf cd 52 2b 3c fd c8 1e 3f ec 7e 41 3f
       -0.56570673 0.010456753 0.62025434 0.7558429
000020 e2 00 e7 be f2 cf 25 c0 55 6e 2e 3f d2 65 dd 3d
       -0.4511786 -2.590817 0.68137103 0.10810436
000030 ec 77 23 3f 4b 15 64 3f 67 19 39 3f 1c 19 01 bb
       0.6385486 0.8909499 0.72304386 -0.0019698804
000040 56 ba aa 3f 97 89 cf bf aa 5b db bd f8 fa 14 3f
       1.3338115 -1.6213864 -0.10710843 0.5819545
000050 1d 5d 04 3f 6a 85 aa bf 62 ed 84 be 56 de 04 c0
       0.5170458 -1.3321965 -0.2596236 -2.0760703
000060 fd 51 15 40 3a c2 87 be 9b 57 9c 3f 86 3f dd bf
       2.3331292 -0.2651537 1.2214235 -1.7285011
000070 0f 0c b5 bf 5a fb d0 be 17 0d 02 c0 7a 74 0b 40
       -1.4144305 -0.40816766 -2.032049 2.1789842
000080 c1 47 1e bf 7e 2f a7 3f 03 3b f2 bf 90 b5 49 3f
       -0.6182824 1.3061368 -1.8924259 0.7879267
000090 5c 8a 44 3e f9 6b a7 3f 46 a5 aa bf 56 c2 29 bd
       0.19193405 1.3079826 -1.3331687 -0.0414451
0000a0 91 cd 0f 3e 6a 67 09 3f c4 f8 cf 3d 2c 47 73 3e
       0.14043261 0.5367342 0.1015487 0.23757619
0000b0 02 bc cd bd 8f ee 34 bf 91 b2 ce be 84 56 fb be
       -0.10045625 -0.7067651 -0.4037061 -0.49089444
0000c0 f0 ed 18 be b2 c0 de 3e 7c ca e5 be 18 2e d0 bd
       -0.14934516 0.4350639 -0.44881046 -0.10165042
0000d0 8c 7e b4 be 68 f9 86 bd 66 8f 32 be 70 30 e4 3d
       -0.35252798 -0.06590539 -0.17437515 0.11142051

sequential_6/dense_38/BiasAdd/ReadVariableOp:0 f4 [7]
000000 cd b1 e5 bd 7e 70 6c be b0 db 47 3e bf ac 48 3e
       -0.112155534 -0.23089787 0.19517398 0.19597147
000010 50 3f 52 be 91 81 2d bd 93 72 2a be
       -0.20531964 -0.042359892 -0.16645269

sequential_6/dense_37/MatMul/ReadVariableOp:0 f4 [9, 8]
000000 da 3d 43 3f 32 ab 96 3f 1f 45 c4 3e 2f a0 95 bf
       0.76266253 1.1770995 0.38333985 -1.1689509
000010 f7 8d 6b bf 2f 82 20 3f bb 6f ca 3e 90 d5 92 be
       -0.92013496 0.62698644 0.3953837 -0.2867856
000020 77 80 e7 be de 6d 7d be 3d 24 65 be 2f d0 20 3f
       -0.45215198 -0.24748942 -0.22377105 0.6281766
000030 e3 6e 39 3f f5 7d 04 bf f2 c5 f5 bd 32 10 26 be
       0.72434825 -0.51754695 -0.12000646 -0.16217116
000040 00 8e a4 3f a4 6e cb 3f 6e 62 7d 3f e5 39 4f bf
       1.2855835 1.589314 0.98978317 -0.80947715
000050 41 fd 3a bf 06 46 d6 3f 7d 91 c1 be b0 1d 18 be
       -0.73042685 1.674012 -0.3780631 -0.14855075
000060 08 0f da be 82 1e ec 3d 2c e7 3a 3e 28 7a f0 3e
       -0.42589593 0.115292564 0.18252248 0.46968198
000070 04 ad 45 3e a9 03 0d 3f 94 f5 f5 3e 8c b6 90 3e
       0.19304281 0.5508371 0.48038924 0.28264272
000080 cd e2 d4 3e 18 fc de 3e f0 b8 e7 be 02 7b c3 be
       0.41579285 0.43551707 -0.45258284 -0.38179785
000090 0a 59 ba be b9 94 bf 3e e0 60 b2 3d 98 7a 8c be
       -0.36396056 0.37418154 0.08709884 -0.27437282
0000a0 b6 09 85 be 09 f6 f2 be 90 5f ad 3e f3 af d7 bd
       -0.2598397 -0.47453335 0.3386197 -0.105316065
0000b0 37 a3 3d 3d f2 90 ec bd 0e 46 8e bc 6e 83 92 be
       0.046298232 -0.115510836 -0.017367389 -0.28615898
0000c0 31 46 9a 3f 39 c5 9c 3f ed 45 46 be 8e 7b da 3f
       1.2052671 1.2247688 -0.19362612 1.7068956
0000d0 c1 e9 f0 3f b5 b4 74 3f 2c d6 89 3e 1c a0 4d be
       1.8821336 0.9558824 0.26921213 -0.20080608
0000e0 f5 fa 1e 3f 44 71 96 3f d3 3a 5f 3f c6 12 99 3f
       0.6210168 1.1753316 0.87199134 1.1958854
0000f0 a7 7f 6f 3f 78 7d 11 3f 9c c8 58 3e 96 1e 8b 3e
       0.93554157 0.56832075 0.21170276 0.27171773
000100 5b 36 82 3f c6 e4 08 40 c3 a5 ef be 1a 3f 56 3d
       1.0172838 2.1389632 -0.46806154 0.052306272
000110 81 d1 37 be 2e 83 86 3f f4 4c 8b be 02 93 75 be
       -0.17951013 1.0508783 -0.27207148 -0.2398186

sequential_6/dense_37/BiasAdd/ReadVariableOp:0 f4 [8]
000000 e0 c8 8d bd 83 27 9a 3d 05 16 58 bd a5 e3 2d 3c
       -0.069230795 0.075270675 -0.052755374 0.010613357
000010 15 d4 18 bd b3 7f 5c bd 8b 23 34 be 00 00 00 00
       -0.037311632 -0.05383272 -0.17591684 0.0

sequential_6/dense_36/MatMul/ReadVariableOp:0 f4 [9, 9]
000000 a5 3d 3c bf 43 8c 39 bd 0a e7 8d be 00 b8 0e bf
       -0.7353156 -0.04529978 -0.2771533 -0.5574951
000010 f0 81 14 3f 87 72 d1 3e 6c b1 24 3e ea 10 2c be
       0.5801077 0.4090769 0.16083306 -0.16803327
000020 ae 7a 27 3f d5 d3 76 3e 04 8a 11 3f 4d 76 9b 3f
       0.6542157 0.24104245 0.5685122 1.2145478
000030 da 0d 45 be 10 86 45 bf 4c 43 06 bf 77 b4 39 3f
       -0.19243565 -0.7715769 -0.52446437 0.7254099
000040 36 84 7f 3f 04 fe 38 bf 8f 5b 4f 3e a6 4e df be
       0.9981111 -0.722626 0.2024977 -0.43614691
000050 87 cc 88 bf 0e 9b 47 bd 3f 83 3f 3f 0a b6 6c 3f
       -1.0687417 -0.048731856 0.7480964 0.9246527
000060 9d 11 12 3d 85 b4 63 3f 97 4a 87 bd f3 2d dc bf
       0.03566133 0.88947326 -0.06606024 -1.7201523
000070 de f8 ef 3f 02 7e 04 c0 d9 f7 73 be 8f 8a 40 bf
       1.8747823 -2.070191 -0.23825015 -0.75211424
000080 e2 3e ef bc 3b b8 94 3e 28 9d f8 bf a2 b5 6c 3e
       -0.02920479 0.29046807 -1.942296 0.23116162
000090 e9 b6 1b 3f 9b 2f 2e bf a4 4e dd 3f 60 8d b5 be
       0.60825974 -0.6804139 1.7289624 -0.35459423
0000a0 2f bb 01 3f f9 0c b5 bd c9 3c 11 bf 90 c8 66 3f
       0.50676244 -0.08840365 -0.56733376 0.90149784
0000b0 00 6f 9f 3d 13 da 2e 3f e5 8d 1c be fd 5f 1b 3e
       0.077848434 0.68301505 -0.15288503 0.15173335
0000c0 0a d7 11 3d 5b 04 9f 3e d5 fc 87 be 13 bb 0e bf
       0.035605468 0.3105801 -0.26560083 -0.557542
0000d0 e3 69 1a be eb 70 b3 3e e3 3b b2 bf 37 34 b4 3f
       -0.15079455 0.35047087 -1.3924526 1.4078435
0000e0 8b 45 f4 bf 2f 88 9b 3e 8c bf a5 bf f8 8c a4 bd
       -1.9083723 0.30377337 -1.294908 -0.080347
0000f0 50 94 08 3f 00 b9 95 be 15 4b 33 be aa 3c 9f 3e
       0.53351307 -0.29242706 -0.1750911 0.3110097
000100 25 60 74 be 7a 0c 83 3e d2 03 fb 3e 42 6f 65 3f
       -0.23864801 0.25595456 0.49026352 0.8962289
000110 91 81 ef be 61 57 e7 be f5 d0 af be 4d c8 29 3f
       -0.4677854 -0.45183852 -0.3433911 0.6632126
000120 b1 de a1 3c 58 ce 4d bc c0 11 a8 3c 0e ae 6d be
       0.019759508 -0.012561403 0.020516276 -0.23210928
000130 1d d7 82 3e cb 27 a3 3e 94 69 c2 bc 9b a8 58 3e
       0.25554743 0.31866297 -0.023731984 0.21158068
000140 c3 57 86 3d
       0.06559708

sequential_6/dense_36/BiasAdd/ReadVariableOp:0 f4 [9]
000000 de df cd 3d 79 9e 28 3e 40 c0 19 3c 62 39 dd 3b
       0.10052465 0.16466703 0.009384215 0.0067512253
000010 af 22 f8 3c 5d cf 2b 3c 6a 22 c7 bc f4 81 f8 bd
       0.030289976 0.010486451 -0.024308402 -0.121341616
000020 98 46 27 be
       -0.16335523
